…
a/files/yolov3.weightsResolving pjreddie.com (pjreddie.com)... 128.208.4.108Connecting to pjreddie.com (pjreddie.com)|128.208.4.108|:443... connected.HTTP request sent, awaiting response... 200 OKLength: 248007048 (237M) [application/octet-stream]Saving to: ‘yolov3.weights’yolov3.weights      100%[===================>] 236.52M  4.02MB/s    in 68s     2022-06-04 04:21:18 (3.49 MB/s) - ‘yolov3.weights’ saved [248007048/248007048] dailyman@dailyman-desktop:~/darknet$ ./darknet detect cfg/yolov3.cfg yolov3.weights data/dog.jpglayer     filters    size              input                output    0 conv     32  3 x 3 / 1   608 x 608 x   3   ->   608 x 608 x  32  0.639 BFLOPs    1 conv     64  3 x 3 / 2   608 x 608 x  32   ->   304 x 304 x  64  3.407 BFLOPs    2 conv     32  1 x 1 / 1   304 x 304 x  64   ->   304 x 304 x  32  0.379 BFLOPs    3 conv     64  3 x 3 / 1   304 x 304 x  32   ->   304 x 304 x  64  3.407 BFLOPs    4 res    1                 304 x 304 x  64   ->   304 x 304 x  64    5 conv    128  3 x 3 / 2   304 x 304 x  64   ->   152 x 152 x 128  3.407 BFLOPs    6 conv     64  1 x 1 / 1   152 x 152 x 128   ->   152 x 152 x  64  0.379 BFLOPs    7 conv    128  3 x 3 / 1   152 x 152 x  64   ->   152 x 152 x 128  3.407 BFLOPs    8 res    5                 152 x 152 x 128   ->   152 x 152 x 128    9 conv     64  1 x 1 / 1   152 x 152 x 128   ->   152 x 152 x  64  0.379 BFLOPs   10 conv    128  3 x 3 / 1   152 x 152 x  64   ->   152 x 152 x 128  3.407 BFLOPs   11 res    8                 152 x 152 x 128   ->   152 x 152 x 128   12 conv    256  3 x 3 / 2   152 x 152 x 128   ->    76 x  76 x 256  3.407 BFLOPs   13 conv    128  1 x 1 / 1    76 x  76 x 256   ->    76 x  76 x 128  0.379 BFLOPs   14 conv    256  3 x 3 / 1    76 x  76 x 128   ->    76 x  76 x 256  3.407 BFLOPs   15 res   12                  76 x  76 x 256   ->    76 x  76 x 256   16 conv    128  1 x 1 / 1    76 x  76 x 256   ->    76 x  76 x 128  0.379 BFLOPs(중략)   94 yolo   95 route  91   96 conv    128  1 x 1 / 1    38 x  38 x 256   ->    38 x  38 x 128  0.095 BFLOPs   97 upsample            2x    38 x  38 x 128   ->    76 x  76 x 128   98 route  97 36   99 conv    128  1 x 1 / 1    76 x  76 x 384   ->    76 x  76 x 128  0.568 BFLOPs  100 conv    256  3 x 3 / 1    76 x  76 x 128   ->    76 x  76 x 256  3.407 BFLOPs  101 conv    128  1 x 1 / 1    76 x  76 x 256   ->    76 x  76 x 128  0.379 BFLOPs  102 conv    256  3 x 3 / 1    76 x  76 x 128   ->    76 x  76 x 256  3.407 BFLOPs  103 conv    128  1 x 1 / 1    76 x  76 x 256   ->    76 x  76 x 128  0.379 BFLOPs  104 conv    256  3 x 3 / 1    76 x  76 x 128   ->    76 x  76 x 256  3.407 BFLOPs  105 conv    255  1 x 1 / 1    76 x  76 x 256   ->    76 x  76 x 255  0.754 BFLOPs  106 yoloLoading weights from yolov3.weights...Done!data/dog.jpg: Predicted in 83.144477 seconds.dog: 100%truck: 92%bicycle: 99% 기존 레퍼런스보다 인식률이 더 높게 나왔다dog 99% -> 100%  dailyman@dailyman-desktop:~/darknet$ ./darknet detector test cfg/coco.data cfg/yolov3.cfg yolov3.weights data/dog.jpglayer     filters    size              input                output    0 conv     32  3 x 3 / 1   608 x 608 x   3   ->   608 x 608 x  32  0.639 BFLOPs    1 conv     64  3 x 3 / 2   608 x 608 x  32   ->   304 x 304 x  64  3.407 BFLOPs    2 conv     32  1 x 1 / 1   304 x 304 x  64   ->   304 x 304 x  32  0.379 BFLOPs    3 conv     64  3 x 3 / 1   304 x 304 x  32   ->   304 x 304 x  64  3.407 BFLOPs    4 res    1                 304 x 304 x  64   ->   304 x 304 x  64    5 conv    128  3 x 3 / 2   304 x 304 x  64   ->   152 x 152 x 128  3.407 BFLOPs    6 conv     64  1 x 1 / 1   152 x 152 x 128   ->   152 x 152 x  64  0.379 BFLOPs    7 conv    128  3 x 3 / 1   152 x 152 x  64   ->   152 x 152 x 128  3.407 BFLOPs    8 res    5                 152 x 152 x 128   ->   152 x 152 x 128    9 conv     64  1 x 1 / 1   152 x 152 x 128   ->   152 x 152 x  64  0.379 BFLOPs   10 conv    128  3 x 3 / 1   152 x 152 x  64   ->   152 x 152 x 128  3.407 BFLOPs   94 yolo   95 route  91   96 conv    128  1 x 1 / 1    38 x  38 x 256   ->    38 x  38 x 128  0.095 BFLOPs   97 upsample            2x    38 x  38 x 128   ->    76 x  76 x 128   98 route  97 36   99 conv    128  1 x 1 / 1    76 x  76 x 384   ->    76 x  76 x 128  0.568 BFLOPs  100 conv    256  3 x 3 / 1    76 x  76 x 128   ->    76 x  76 x 256  3.407 BFLOPs  101 conv    128  1 x 1 / 1    76 x  76 x 256   ->    76 x  76 x 128  0.379 BFLOPs  102 conv    256  3 x 3 / 1    76 x  76 x 128   ->    76 x  76 x 256  3.407 BFLOPs  103 conv    128  1 x 1 / 1    76 x  76 x 256   ->    76 x  76 x 128  0.379 BFLOPs  104 conv    256  3 x 3 / 1    76 x  76 x 128   ->    76 x  76 x 256  3.407 BFLOPs  105 conv    255  1 x 1 / 1    76 x  76 x 256   ->    76 x  76 x 255  0.754 BFLOPs  106 yoloLoading weights from yolov3.weights...Done!data/dog.jpg: Predicted in 82.429671 seconds.dog: 100%truck: 92%bicycle: 99% 기존 레퍼런스보다 인식률이 더 높게 나왔다​dog 99% -> 100%   [Reference]https://pjreddie.com/darknet/yolo/ YOLO: Real-Time Object DetectionYOLO: Real-Time Object Detection You only look once (YOLO) is a state-of-the-art, real-time obj
…
